…
        "colab": {
          "base_uri": "https://localhost:8080/"
        },
        "id": "0odDsMG7dmeh",
        "outputId": "fc30c9de-8f97-4987-c307-317feec9d787"
      },
      "outputs": [
        {
          "output_type": "stream",
          "name": "stdout",
          "text": [
            "Model: \"sequential\"\n",
            "_________________________________________________________________\n",
            " Layer (type)                Output Shape              Param #   \n",
            "=================================================================\n",
            " conv2d (Conv2D)             (None, 128, 128, 32)      896       \n",
            "                                                                 \n",
            " conv2d_1 (Conv2D)           (None, 128, 128, 64)      18496     \n",
            "                                                                 \n",
            " max_pooling2d (MaxPooling2D  (None, 64, 64, 64)       0         \n",
            " )                                                               \n",
            "                                                                 \n",
            " conv2d_2 (Conv2D)           (None, 64, 64, 3)         1731      \n",
            "                                                                 \n",
            " conv2d_3 (Conv2D)           (None, 64, 64, 3)         84        \n",
            "                                                                 \n",
            " max_pooling2d_1 (MaxPooling  (None, 32, 32, 3)        0         \n",
            " 2D)                                                             \n",
            "                                                                 \n",
            " conv2d_4 (Conv2D)           (None, 32, 32, 3)         84        \n",
            "                                                                 \n",
            " conv2d_5 (Conv2D)           (None, 32, 32, 3)         84        \n",
            "                                                                 \n",
            " conv2d_6 (Conv2D)           (None, 32, 32, 3)         84        \n",
            "                                                                 \n",
            " max_pooling2d_2 (MaxPooling  (None, 16, 16, 3)        0         \n",
            " 2D)                                                             \n",
            "                                                                 \n",
            " batch_normalization (BatchN  (None, 16, 16, 3)        12        \n",
            " ormalization)                                                   \n",
            "                                                                 \n",
            " conv2d_7 (Conv2D)           (None, 16, 16, 3)         84        \n",
            "                                                                 \n",
            " conv2d_8 (Conv2D)           (None, 16, 16, 3)         84        \n",
            "                                                                 \n",
            " conv2d_9 (Conv2D)           (None, 16, 16, 3)         84        \n",
            "                                                                 \n",
            " max_pooling2d_3 (MaxPooling  (None, 8, 8, 3)          0         \n",
            " 2D)                                                             \n",
            "                                                                 \n",
            " batch_normalization_1 (Batc  (None, 8, 8, 3)          12        \n",
            " hNormalization)                                                 \n",
            "                                                                 \n",
            " max_pooling2d_4 (MaxPooling  (None, 4, 4, 3)          0         \n",
            " 2D)                                                             \n",
            "                                                                 \n",
            " flatten (Flatten)           (None, 48)                0         \n",
            "                                                                 \n",
            " dense (Dense)               (None, 6)                 294       \n",
            "                                                                 \n",
            "=================================================================\n",
            "Total params: 22,029\n",
            "Trainable params: 22,017\n",
            "Non-trainable params: 12\n",
            "_________________________________________________________________\n"
          ]
        }
…
          "base_uri": "https://localhost:8080/"
        },
        "id": "Y-n8-D-edjNu",
        "outputId": "ed9ceee0-7b3f-43ce-c5d8-b7a7d083fb6c"
      },
      "execution_count": 18,
      "outputs": [
        {
          "output_type": "stream",
          "name": "stdout",
          "text": [
            "Model: \"sequential_2\"\n",
            "_________________________________________________________________\n",
            " Layer (type)                Output Shape              Param #   \n",
            "=================================================================\n",
            " conv2d_10 (Conv2D)          (None, 32, 32, 3)         84        \n",
            "                                                                 \n",
            " activation (Activation)     (None, 32, 32, 3)         0         \n",
            "                                                                 \n",
            " max_pooling2d_5 (MaxPooling  (None, 16, 16, 3)        0         \n",
            " 2D)                                                             \n",
            "                                                                 \n",
            " batch_normalization_2 (Batc  (None, 16, 16, 3)        12        \n",
            " hNormalization)                                                 \n",
            "                                                                 \n",
            " conv2d_11 (Conv2D)          (None, 16, 16, 3)         84        \n",
            "                                                                 \n",
            " activation_1 (Activation)   (None, 16, 16, 3)         0         \n",
            "                                                                 \n",
            " max_pooling2d_6 (MaxPooling  (None, 7, 7, 3)          0         \n",
            " 2D)                                                             \n",
            "                                                                 \n",
            " batch_normalization_3 (Batc  (None, 7, 7, 3)          12        \n",
            " hNormalization)                                                 \n",
            "                                                                 \n",
            " conv2d_12 (Conv2D)          (None, 7, 7, 3)           84        \n",
            "                                                                 \n",
            " conv2d_13 (Conv2D)          (None, 7, 7, 3)           84        \n",
            "                                                                 \n",
            " conv2d_14 (Conv2D)          (None, 7, 7, 3)           84        \n",
            "                                                                 \n",
            " max_pooling2d_7 (MaxPooling  (None, 5, 5, 3)          0         \n",
            " 2D)                                                             \n",
            "                                                                 \n",
            " activation_2 (Activation)   (None, 5, 5, 3)           0         \n",
            "                                                                 \n",
            " batch_normalization_4 (Batc  (None, 5, 5, 3)          12        \n",
            " hNormalization)                                                 \n",
            "                                                                 \n",
            " conv2d_15 (Conv2D)          (None, 5, 5, 3)           84        \n",
            "                                                                 \n",
            " activation_3 (Activation)   (None, 5, 5, 3)           0         \n",
            "                                                                 \n",
            " batch_normalization_5 (Batc  (None, 5, 5, 3)          12        \n",
            " hNormalization)                                                 \n",
            "                                                                 \n",
            " batch_normalization_6 (Batc  (None, 5, 5, 3)          12        \n",
            " hNormalization)                                                 \n",
            "                                                                 \n",
            " flatten_1 (Flatten)         (None, 75)                0         \n",
            "                                                                 \n",
            " dense_1 (Dense)             (None, 6)                 456       \n",
            "                                                                 \n",
            "=================================================================\n",
            "Total params: 1,020\n",
            "Trainable params: 990\n",
            "Non-trainable params: 30\n",
            "_________________________________________________________________\n"
          ]
        }
      ]
…
            "                                )]                                                                \n",
            "                                                                                                  \n",
            " conv2d_input (InputLayer)      [(None, 128, 128, 3  0           []                               \n",
            "                                )]                                                                \n",
            "                                                                                                  \n",
            " conv2d_10 (Conv2D)             (None, 32, 32, 3)    84          ['conv2d_10_input[0][0]']        \n",
            "                                                                                                  \n",
            " conv2d (Conv2D)                (None, 128, 128, 32  896         ['conv2d_input[0][0]']           \n",
            "                                )                                                                 \n",
            "                                                                                                  \n",
            " activation (Activation)        (None, 32, 32, 3)    0           ['conv2d_10[0][0]']              \n",
            "                                                                                                  \n",
            " conv2d_1 (Conv2D)              (None, 128, 128, 64  18496       ['conv2d[0][0]']                 \n",
            "                                )                                                                 \n",
            "                                                                                                  \n",
            " max_pooling2d_5 (MaxPooling2D)  (None, 16, 16, 3)   0           ['activation[0][0]']             \n",
            "                                                                                                  \n",
            " max_pooling2d (MaxPooling2D)   (None, 64, 64, 64)   0           ['conv2d_1[0][0]']               \n",
            "                                                                                                  \n",
            " batch_normalization_2 (BatchNo  (None, 16, 16, 3)   12          ['max_pooling2d_5[0][0]']        \n",
            " rmalization)                                                                                     \n",
            "                                                                                                  \n",
            " conv2d_2 (Conv2D)              (None, 64, 64, 3)    1731        ['max_pooling2d[0][0]']          \n",
            "                                                                                                  \n",
            " conv2d_11 (Conv2D)             (None, 16, 16, 3)    84          ['batch_normalization_2[0][0]']  \n",
            "                                                                                                  \n",
            " conv2d_3 (Conv2D)              (None, 64, 64, 3)    84          ['conv2d_2[0][0]']               \n",
            "                                                                                                  \n",
            " activation_1 (Activation)      (None, 16, 16, 3)    0           ['conv2d_11[0][0]']              \n",
            "                                                                                                  \n",
            " max_pooling2d_1 (MaxPooling2D)  (None, 32, 32, 3)   0           ['conv2d_3[0][0]']               \n",
            "                                                                                                  \n",
            " max_pooling2d_6 (MaxPooling2D)  (None, 7, 7, 3)     0           ['activation_1[0][0]']           \n",
            "                                                                                                  \n",
            " conv2d_4 (Conv2D)              (None, 32, 32, 3)    84          ['max_pooling2d_1[0][0]']        \n",
            "                                                                                                  \n",
            " batch_normalization_3 (BatchNo  (None, 7, 7, 3)     12          ['max_pooling2d_6[0][0]']        \n",
            " rmalization)                                                                                     \n",
            "                                                                                                  \n",
            " conv2d_5 (Conv2D)              (None, 32, 32, 3)    84          ['conv2d_4[0][0]']               \n",
            "                                                                                                  \n",
            " conv2d_12 (Conv2D)             (None, 7, 7, 3)      84          ['batch_normalization_3[0][0]']  \n",
            "                                                                                                  \n",
            " conv2d_6 (Conv2D)              (None, 32, 32, 3)    84          ['conv2d_5[0][0]']               \n",
            "                                                                                                  \n",
            " conv2d_13 (Conv2D)             (None, 7, 7, 3)      84          ['conv2d_12[0][0]']              \n",
            "                                                                                                  \n",
            " max_pooling2d_2 (MaxPooling2D)  (None, 16, 16, 3)   0           ['conv2d_6[0][0]']               \n",
            "                                                                                                  \n",
            " conv2d_14 (Conv2D)             (None, 7, 7, 3)      84          ['conv2d_13[0][0]']              \n",
            "                                                                                                  \n",
            " batch_normalization (BatchNorm  (None, 16, 16, 3)   12          ['max_pooling2d_2[0][0]']        \n",
            " alization)                                                                                       \n",
            "                                                                                                  \n",
            " max_pooling2d_7 (MaxPooling2D)  (None, 5, 5, 3)     0           ['conv2d_14[0][0]']              \n",
            "                                                                                                  \n",
            " conv2d_7 (Conv2D)              (None, 16, 16, 3)    84          ['batch_normalization[0][0]']    \n",
            "                                                                                                  \n",
            " activation_2 (Activation)      (None, 5, 5, 3)      0           ['max_pooling2d_7[0][0]']        \n",
            "                                                                                                  \n",
            " conv2d_8 (Conv2D)              (None, 16, 16, 3)    84          ['conv2d_7[0][0]']               \n",
            "                                                                                                  \n",
            " batch_normalization_4 (BatchNo  (None, 5, 5, 3)     12          ['activation_2[0][0]']           \n",
            " rmalization)                                                                                     \n",
            "                                                                                                  \n",
            " conv2d_9 (Conv2D)              (None, 16, 16, 3)    84          ['conv2d_8[0][0]']               \n",
            "                                                                                                  \n",
            " conv2d_15 (Conv2D)             (None, 5, 5, 3)      84          ['batch_normalization_4[0][0]']  \n",
            "                                                                                                  \n",
            " max_pooling2d_3 (MaxPooling2D)  (None, 8, 8, 3)     0           ['conv2d_9[0][0]']               \n",
            "                                                                                                  \n",
            " activation_3 (Activation)      (None, 5, 5, 3)      0           ['conv2d_15[0][0]']              \n",
            "                                                                                                  \n",
            " batch_normalization_1 (BatchNo  (None, 8, 8, 3)     12          ['max_pooling2d_3[0][0]']        \n",
            " rmalization)                                                                                     \n",
            "                                                                                                  \n",
            " batch_normalization_5 (BatchNo  (None, 5, 5, 3)     12          ['activation_3[0][0]']           \n",
            " rmalization)                                                                                     \n",
            "                                                                                                  \n",
            " max_pooling2d_4 (MaxPooling2D)  (None, 4, 4, 3)     0           ['batch_normalization_1[0][0]']  \n",
            "                                                                                                  \n",
            " batch_normalization_6 (BatchNo  (None, 5, 5, 3)     12          ['batch_normalization_5[0][0]']  \n",
            " rmalization)                                                                                     \n",
            "                                                                                                  \n",
            " flatten (Flatten)              (None, 48)           0           ['max_pooling2d_4[0][0]']        \n",
            "                                                                                                  \n",
            " flatten_1 (Flatten)            (None, 75)           0           ['batch_normalization_6[0][0]']  \n",
            "                                                                                                  \n",
            " dense (Dense)                  (None, 6)            294         ['flatten[0][0]']                \n",
            "                                                                                                  \n",
            " dense_1 (Dense)                (None, 6)            456         ['flatten_1[0][0]']              \n",
            "                                                                                                  \n",
            " flatten_2 (Flatten)            (None, 6)            0           ['dense[0][0]']                  \n",
            "                                                                                                  \n",
            " flatten_3 (Flatten)            (None, 6)            0           ['dense_1[0][0]']                \n",
            "                                                                                                  \n",
            " concatenate (Concatenate)      (None, 12)           0           ['flatten_2[0][0]',              \n",
            "                                                                  'flatten_3[0][0]']              \n",
            "                                                                                                  \n",
            " dense_2 (Dense)                (None, 6)            78          ['concatenate[0][0]']            \n",
            "                                                                                                  \n",
            "==================================================================================================\n",
            "Total params: 23,127\n",
            "Trainable params: 23,085\n",
            "Non-trainable params: 42\n",
…
          "base_uri": "https://localhost:8080/"
        },
        "id": "ZOYYrXX9wbUZ",
        "outputId": "3eda05c3-7b22-4772-9afc-bd89981fb3d1"
      },
      "outputs": [
        {
          "name": "stdout",
          "output_type": "stream",
          "text": [
            "Model: \"sequential_3\"\n",
            "_________________________________________________________________\n",
            " Layer (type)                Output Shape              Param #   \n",
            "=================================================================\n",
            " conv2d_16 (Conv2D)          (None, 128, 128, 32)      896       \n",
            "                                                                 \n",
            " max_pooling2d_8 (MaxPooling  (None, 64, 64, 32)       0         \n",
            " 2D)                                                             \n",
            "                                                                 \n",
            " conv2d_17 (Conv2D)          (None, 64, 64, 64)        18496     \n",
            "                                                                 \n",
            " max_pooling2d_9 (MaxPooling  (None, 32, 32, 64)       0         \n",
            " 2D)                                                             \n",
            "                                                                 \n",
            " conv2d_18 (Conv2D)          (None, 32, 32, 64)        36928     \n",
            "                                                                 \n",
            " max_pooling2d_10 (MaxPoolin  (None, 16, 16, 64)       0         \n",
            " g2D)                                                            \n",
            "                                                                 \n",
            " conv2d_19 (Conv2D)          (None, 16, 16, 128)       73856     \n",
            "                                                                 \n",
            " max_pooling2d_11 (MaxPoolin  (None, 8, 8, 128)        0         \n",
            " g2D)                                                            \n",
            "                                                                 \n",
            " dropout (Dropout)           (None, 8, 8, 128)         0         \n",
            "                                                                 \n",
            " conv2d_20 (Conv2D)          (None, 8, 8, 128)         147584    \n",
            "                                                                 \n",
            " max_pooling2d_12 (MaxPoolin  (None, 4, 4, 128)        0         \n",
            " g2D)                                                            \n",
            "                                                                 \n",
            " flatten_4 (Flatten)         (None, 2048)              0         \n",
            "                                                                 \n",
            " dense_3 (Dense)             (None, 512)               1049088   \n",
            "                                                                 \n",
            " dense_4 (Dense)             (None, 6)                 3078      \n",
            "                                                                 \n",
            "=================================================================\n",
            "Total params: 1,329,926\n",
            "Trainable params: 1,329,926\n",
            "Non-trainable params: 0\n",
            "_________________________________________________________________\n"
          ]
        }
…
            "                                )                                                                 \n",
            "                                                                                                  \n",
            " conv2d_16 (Conv2D)             (None, 128, 128, 64  18496       ['conv2d_15[0][0]']              \n",
            "                                )                                                                 \n",
            "                                                                                                  \n",
            " max_pooling2d_10 (MaxPooling2D  (None, 64, 64, 64)  0           ['conv2d_16[0][0]']              \n",
            " )                                                                                                \n",
            "                                                                                                  \n",
            " conv2d_17 (Conv2D)             (None, 64, 64, 3)    1731        ['max_pooling2d_10[0][0]']       \n",
            "                                                                                                  \n",
            " conv2d_18 (Conv2D)             (None, 64, 64, 3)    84          ['conv2d_17[0][0]']              \n",
            "                                                                                                  \n",
            " conv2d_25_input (InputLayer)   [(None, 128, 128, 3  0           []                               \n",
            "                                )]                                                                \n",
            "                                                                                                  \n",
            " max_pooling2d_11 (MaxPooling2D  (None, 32, 32, 3)   0           ['conv2d_18[0][0]']              \n",
            " )                                                                                                \n",
            "                                                                                                  \n",
            " conv2d_25 (Conv2D)             (None, 128, 128, 32  896         ['conv2d_25_input[0][0]']        \n",
            "                                )                                                                 \n",
            "                                                                                                  \n",
            " conv2d_19 (Conv2D)             (None, 32, 32, 3)    84          ['max_pooling2d_11[0][0]']       \n",
            "                                                                                                  \n",
            " max_pooling2d_15 (MaxPooling2D  (None, 64, 64, 32)  0           ['conv2d_25[0][0]']              \n",
            " )                                                                                                \n",
            "                                                                                                  \n",
            " conv2d_20 (Conv2D)             (None, 32, 32, 3)    84          ['conv2d_19[0][0]']              \n",
            "                                                                                                  \n",
            " conv2d_26 (Conv2D)             (None, 64, 64, 64)   18496       ['max_pooling2d_15[0][0]']       \n",
            "                                                                                                  \n",
            " conv2d_21 (Conv2D)             (None, 32, 32, 3)    84          ['conv2d_20[0][0]']              \n",
            "                                                                                                  \n",
            " max_pooling2d_16 (MaxPooling2D  (None, 32, 32, 64)  0           ['conv2d_26[0][0]']              \n",
            " )                                                                                                \n",
            "                                                                                                  \n",
            " max_pooling2d_12 (MaxPooling2D  (None, 16, 16, 3)   0           ['conv2d_21[0][0]']              \n",
            " )                                                                                                \n",
            "                                                                                                  \n",
            " conv2d_27 (Conv2D)             (None, 32, 32, 64)   36928       ['max_pooling2d_16[0][0]']       \n",
            "                                                                                                  \n",
            " batch_normalization_2 (BatchNo  (None, 16, 16, 3)   12          ['max_pooling2d_12[0][0]']       \n",
            " rmalization)                                                                                     \n",
            "                                                                                                  \n",
            " max_pooling2d_17 (MaxPooling2D  (None, 16, 16, 64)  0           ['conv2d_27[0][0]']              \n",
            " )                                                                                                \n",
            "                                                                                                  \n",
            " conv2d_22 (Conv2D)             (None, 16, 16, 3)    84          ['batch_normalization_2[0][0]']  \n",
            "                                                                                                  \n",
            " conv2d_28 (Conv2D)             (None, 16, 16, 128)  73856       ['max_pooling2d_17[0][0]']       \n",
            "                                                                                                  \n",
            " conv2d_23 (Conv2D)             (None, 16, 16, 3)    84          ['conv2d_22[0][0]']              \n",
            "                                                                                                  \n",
            " max_pooling2d_18 (MaxPooling2D  (None, 8, 8, 128)   0           ['conv2d_28[0][0]']              \n",
            " )                                                                                                \n",
            "                                                                                                  \n",
            " conv2d_24 (Conv2D)             (None, 16, 16, 3)    84          ['conv2d_23[0][0]']              \n",
            "                                                                                                  \n",
            " dropout_1 (Dropout)            (None, 8, 8, 128)    0           ['max_pooling2d_18[0][0]']       \n",
            "                                                                                                  \n",
            " max_pooling2d_13 (MaxPooling2D  (None, 8, 8, 3)     0           ['conv2d_24[0][0]']              \n",
            " )                                                                                                \n",
            "                                                                                                  \n",
            " conv2d_29 (Conv2D)             (None, 8, 8, 128)    147584      ['dropout_1[0][0]']              \n",
            "                                                                                                  \n",
            " batch_normalization_3 (BatchNo  (None, 8, 8, 3)     12          ['max_pooling2d_13[0][0]']       \n",
            " rmalization)                                                                                     \n",
            "                                                                                                  \n",
            " max_pooling2d_19 (MaxPooling2D  (None, 4, 4, 128)   0           ['conv2d_29[0][0]']              \n",
            " )                                                                                                \n",
            "                                                                                                  \n",
            " max_pooling2d_14 (MaxPooling2D  (None, 4, 4, 3)     0           ['batch_normalization_3[0][0]']  \n",
            " )                                                                                                \n",
            "                                                                                                  \n",
            " flatten_5 (Flatten)            (None, 2048)         0           ['max_pooling2d_19[0][0]']       \n",
            "                                                                                                  \n",
            " flatten_4 (Flatten)            (None, 48)           0           ['max_pooling2d_14[0][0]']       \n",
            "                                                                                                  \n",
            " dense_5 (Dense)                (None, 512)          1049088     ['flatten_5[0][0]']              \n",
            "                                                                                                  \n",
            " dense_4 (Dense)                (None, 6)            294         ['flatten_4[0][0]']              \n",
            "                                                                                                  \n",
            " dense_6 (Dense)                (None, 6)            3078        ['dense_5[0][0]']                \n",
            "                                                                                                  \n",
            " flatten_6 (Flatten)            (None, 6)            0           ['dense_4[0][0]']                \n",
            "                                                                                                  \n",
            " flatten_7 (Flatten)            (None, 6)            0           ['dense_6[0][0]']                \n",
            "                                                                                                  \n",
            " concatenate_1 (Concatenate)    (None, 12)           0           ['flatten_6[0][0]',              \n",
            "                                                                  'flatten_7[0][0]']              \n",
            "                                                                                                  \n",
            " dense_7 (Dense)                (None, 6)            78          ['concatenate_1[0][0]']          \n",
            "                                                                                                  \n",
            "==================================================================================================\n",
            "Total params: 1,352,033\n",
            "Trainable params: 1,352,021\n",
            "Non-trainable params: 12\n",
…
